data/theta_traces_CP_74.npy (npy, 89728 bytes, 1 tensors)

array f8 [56, 200]
-6.1432394487827064 -4.439450794837646 -5.059289494109387 -3.764944147864092 -4.756404503722364 -3.80511128502594 -5.128918678029641 -4.511596865564177
-2.009549280938522 -1.7732898331080986 0.4784502523257885 0.5654336060952054 2.767389450851267 2.8955139272882806 5.226104871013746 5.577352337170775
4.048080866854141 4.822809672916171 3.6667508635507113 4.788118974756685 3.9625858289021108 5.413310602780266 4.929506290195332 2.573237941012653
2.497739084412247 0.4299124152402706 0.554216115174429 -1.4006444973726002 -1.2376204192599187 0.9656414879963066 1.0246058120091683 -0.9741942261260769
-0.836876272339937 1.357863215009972 1.4237580534215561 -0.5523138194792385 -0.37692099093487125 -2.319385277985606 -2.1805480488539835 -0.03892937362955341
-0.07750401943017246 1.9785725004151244 1.9354149351181984 -0.12448652475480353 -0.013444468225444069 2.1888693846481546 2.2944676154967367 0.39192809160934705
0.6739212981813568 -1.1247597883962535 -0.800890712180073 -2.6170982669507965 -2.368879505803294 -0.13014002968971422 -0.07865804652447883 2.063872211680467
2.107123682187506 0.13711852131369376 0.3445697114891963 -1.5387514403490394 -1.3123668544306932 0.9486637280055868 1.062535216191602 -0.8820392025635025
-0.6890273695662169 1.5651027378767641 1.6961240938610136 -0.2064305907917857 0.05289172905001219 -1.792098346265181 -1.53882040531307 0.7388099198370792
0.8606186302945662 -1.0844232624000472 -0.8996815996400205 1.3380526567217805 1.4445161664416113 -0.49178778223772884 -0.27582730170304165 -2.1753599872326284
-1.989589578490078 0.20487367135022103 0.22636702581503443 2.352112064744414 2.3905938146342467 0.42764027512018465 0.6528211556966851 -1.2012529319393737
-0.9336001231709062 -2.808975468966633 -2.6252275049998564 -0.4588962745714375 -0.48944073627626855 1.5580266527116449 1.4901378120706663 3.578983725596164
3.6310705147940037 1.7326743886010454 2.0684207529603857 0.37739443434699355 0.8624090152375291 -0.7338292478534164 -0.20019089614730592 -1.7914780818494633
-1.2944768914940448 -2.9631159461562553 -2.587147514974197 -0.2349819840473174 -0.07822074648904326 -2.026893499332888 -1.8824597641629668 0.2767440130903965
0.2670298627137188 2.3643891899080995 2.376092870097402 0.3868661183379852 0.585223624740137 -1.2972938820725772 -1.0607158293736896 1.2202772910247497
1.3637880808810767 -0.5402223434922819 -0.2950573397584471 -2.1672770964761208 -1.9549553081746376 0.26639111684138145 0.31608390685356547 2.4724439167800516
2.545086778432435 0.6212461908999585 0.8913414600055687 -0.9101092836353188 -0.580576598320473 -2.382817131366154 -2.1118487527337084 0.1592962159099283
0.25286657099597115 2.448897138972435 2.558709787867369 0.6710688082992773 0.9778815076713183 -0.784863864306962 -0.41327585342557976 -2.16859975856381
-1.844069729568785 0.48943363753253105 0.6555078345158755 -1.2552150570325258 -1.0441097100639254 1.2131085909746693 1.3334821061519158 -0.593954442713138
-0.37338063500150137 -2.272288356278756 -2.089755655458564 0.09749359236790905 0.10798482044162377 2.218504674400333 2.237089982558976 0.2487533825436804
0.44277223143818367 -1.449562840198907 -1.2283556908123785 1.0311105884897414 1.146642058080793 -0.7929617544043249 -0.5917376942492686 1.6741718137425212
1.8207533194633754 -0.06181304680976649 0.22224219074728416 -1.5923258126223312 -1.3019761640792349 1.0208475525276435 1.196918914162194 -0.6825577821320652
-0.4192655367830699 -2.2789071340408804 -2.0589289052686928 0.16549487978758756 0.21433273404654385 2.3658745544929514 2.429677214136787 0.49261031405054906
0.7451504968530644 -1.0789803881068754 -0.7777958680127158 -2.614920330374506 -2.386694792914069 -0.1678591636749726 -0.1369545187164213 1.9835066847871117
2.002400228346771 0.00475152747088484 0.18059438227791347 -1.7395622672252216 -1.5564361896937249 0.653179448157157 0.7062904883578093 2.8811923568665057
-6.1432394487827064 -4.439450794837646 -5.059289494109387 -3.764944147864092 -4.756404503722364 -3.80511128502594 -5.128918678029641 -4.511596865564177
-2.009549280938522 -1.7732898331080986 0.4784502523257885 0.5654336060952054 2.767389450851267 2.8955139272882806 1.039335417804123 1.3901813753881842
-0.3137798259126567 0.13246852256344968 -1.5298073538033672 -1.0906863330465189 -2.807207232193457 -2.470916682963293 -0.15196466547586712 -0.024077146257167836
2.1939957037968667 2.314934922266362 4.61679786343079 4.915424584679928 3.3074455880548657 3.9800592030642057 2.6907920141615906 3.6485607914996567
2.618802635757624 3.8240330752773652 3.038732262651969 4.494873810712561 3.9778266937444937 5.726566224664035 5.541334947931563 3.497202197355148
3.7555810412985027 2.060043955720778 2.6032601183634925 1.1330495820848825 1.859040765794681 0.5339837401755806 1.3770766981633191 0.14513800688794867
1.0629488804361131 -0.10969807383043459 0.8553141727144483 -0.2801801856971776 0.7139511556737019 -0.39911947550302773 0.6119471749484847 -0.48884638510156514
00000000: 3e13 b05c ad92 18c0 971d a063 ffc1 11c0
00000010: e9c8 9862 b63c 14c0 2fbe 9209 9b1e 0ec0
00000020: 7f23 f8e6 8e06 13c0 969d 762f de70 0ec0
00000030: 67ec 0742 0384 14c0 4556 790c e00b 12c0
00000040: 70a6 ca92 8e13 00c0 1275 f828 655f fcbf
00000050: 3424 a0ce ed9e de3f c69f c737 0818 e23f
00000060: dc9c 9514 9d23 0640 8786 b634 032a 0740
00000070: a0e1 0909 88e7 1440 abab 7973 354f 1640
00000080: b6ce 5a1c 3c31 1040 9707 709e 8e4a 1340
00000090: 923d 0c7a 8155 0d40 80bf 17a9 0827 1340
000000a0: 29d2 f532 60b3 0f40 0a20 08e5 3aa7 1540
000000b0: cd42 377f d0b7 1340 47ce 0bc6 fd95 0440
000000c0: c4ee 0ba1 5efb 0340 427c e65c af83 db3f
000000d0: 15e4 326f 23bc e13f 529a 5834 0a69 f6bf
000000e0: 9f54 9911 4bcd f3bf 735b 53fa 88e6 ee3f
000000f0: 37ef 5d10 c964 f03f a13b a55e 992c efbf
00000100: 0cf3 8fbf b0c7 eabf 468c 4ec7 ceb9 f53f
00000110: 97cb 4d86 b6c7 f63f 8459 f907 8eac e1bf
00000120: 916f 4f38 791f d8bf 272d 5ede 198e 02c0
00000130: cb79 e92c c371 01c0 f275 2f05 8dee a3bf
00000140: 06da c2ac 4dd7 b3bf 39c4 60a3 3ba8 ff3f
00000150: ab5c a8a6 75f7 fe3f d354 9d50 59de bfbf
00000160: 3120 b9fa c588 8bbf 5a3c b2f3 cd82 0140
00000170: 1351 52d6 115b 0240 3422 f68f 5915 d93f
00000180: 8f89 f865 c390 e53f dd48 b01e 04ff f1bf
00000190: 5879 0f8f e5a0 e9bf 8dc6 5737 d1ef 04c0
000001a0: e4b7 2c19 77f3 02c0 327a b5b1 6da8 c0bf
000001b0: 60cf 6309 ef22 b4bf 8c53 226f cf82 0040
000001c0: c0fa 3ca9 63db 0040 c5ed 5b86 198d c13f
000001d0: bf72 821e 6e0d d63f 648d 8fd4 b99e f8bf
000001e0: c425 0263 74ff f4bf 15ef d508 745b ee3f
000001f0: 7042 46ed 2400 f13f ef9a 1947 aa39 ecbf
00000200: efbe 4a20 830c e6bf e2f8 202b a90a f93f
00000210: 7573 9104 5323 fb3f 6b1e 2c4e 516c cabf
00000220: 0455 ffec 9f14 ab3f 4fcb c650 6fac fcbf
00000230: 2acb 3325 029f f8bf f023 75b3 54a4 e73f
00000240: f630 ee14 308a eb3f 2e7a f034 cc59 f1bf
00000250: 108a e810 31ca ecbf a922 0fe7 a968 f53f
00000260: 6a8f d6fb bc1c f73f 7923 5276 7379 dfbf
00000270: af24 0a8e 27a7 d1bf 6887 1123 2367 01c0
00000280: a93c c1e1 5bd5 ffbf 075d 21eb 4c39 ca3f
00000290: a459 623e 98f9 cc3f 97d5 5421 20d1 0240
000002a0: e7fd 5ea6 ef1f 0340 20fe 0551 755e db3f
000002b0: 7f55 3b31 e9e3 e43f a775 8efe 5438 f3bf
000002c0: 8df0 915d 0de0 edbf d8d2 7321 c878 06c0
000002d0: c145 3447 7700 05c0 8b98 e27a 8e5e ddbf
000002e0: 41c0 e83c ff52 dfbf f915 fb5a aded f83f
000002f0: 2b06 16bf 9ad7 f73f 69d0 3238 c2a1 0c40
00000300: bf14 b4b2 6e0c 0d40 5688 9ac7 08b9 fb3f
00000310: 11a9 022e 208c 0040 cd9d 4dfc 3a27 d83f
00000320: 6910 87ca da98 eb3f 531e 8c79 877b e7bf
00000330: 256e f4f3 da9f c9bf 46b5 d0eb e4a9 fcbf
00000340: 8a50 a666 2db6 f4bf 4bfa 1722 76b4 07c0
00000350: 4def 7565 7ab2 04c0 34f3 50c0 e313 cebf
00000360: 9405 0a5c 4606 b4bf c6e0 60f0 1337 00c0
00000370: 61da 3121 8e1e febf 3592 6585 2cb6 d13f
00000380: 6b4a da6b 0417 d13f a95e 2de1 44ea 0240
00000390: f09d 8afa 3c02 0340 914b 8c1b 6ac2 d83f
000003a0: f85f 23e5 26ba e23f 73d7 cc3a b7c1 f4bf
000003b0: f726 5829 b1f8 f0bf 5d0b 107b 4186 f33f
000003c0: f5f0 6073 13d2 f53f 42c5 3b5e 8049 e1bf
000003d0: 4144 2d2e 38e2 d2bf d2e0 d55f 9556 01c0
000003e0: d706 9c37 7f47 ffbf 5fd5 b153 8d0c d13f
000003f0: 2097 aefe b73a d43f a11d 1ead 90c7 0340
00000400: 61cb f674 565c 0440 b2c1 15b1 3fe1 e33f
00000410: b25e 8986 de85 ec3f 66fd 1f81 9d1f edbf
00000420: e17f d35f 1594 e2bf 8387 9c6d 0210 03c0
00000430: a4b7 78f5 10e5 00c0 59d7 da82 d163 c43f
00000440: 9b7a 2b45 f72e d03f 923c 1962 5797 0340
00000450: 7ac3 56d6 3c78 0440 d85a 204b 6579 e53f
00000460: b0f7 d928 ce4a ef3f b356 a0d2 9a1d e9bf
00000470: 631e ac90 1c73 dabf 1529 89d4 4a59 01c0
00000480: f7a9 c042 4f81 fdbf 35ee b076 e152 df3f
00000490: 138f f090 ebf9 e43f 6f6c 3662 5c15 f4bf
000004a0: d391 2262 acb4 f0bf bcb9 cb8d e468 f33f
000004b0: 3094 3b55 f155 f53f e689 58bf ac01 e3bf
000004c0: 63a2 12e4 77e5 d7bf 0d64 8a84 a52d 02c0
000004d0: c89a 26d0 d1b7 00c0 642b ca0e 57f5 b83f
000004e0: 6cde 42a8 e4a4 bb3f 9a94 f460 7fbf 0140
000004f0: 6d66 ca6e 8fe5 0140 acb1 659d 26d7 cf3f
00000500: fca6 6657 6156 dc3f 3b6b 02ce 6831 f7bf
00000510: 8050 fe4b 58a7 f3bf ccf6 01d1 6d7f f03f
00000520: 5ecd ba57 a558 f23f c9a6 4454 f15f e9bf
00000530: c58d 93e3 83ef e2bf ce8b 3e62 68c9 fa3f
00000540: b3db 923b ce21 fd3f 6d33 07ad f5a5 afbf
00000550: 7d86 869e 6e72 cc3f f1a1 9ca1 2a7a f9bf
00000560: fe44 4ef5 e4d4 f4bf 0aed 443e 6455 f03f
00000570: b4a5 8472 9426 f33f 8266 fc6a 83d7 e5bf
00000580: d2ae 341e 3fd5 dabf 059d daa9 333b 02c0
00000590: 4e58 c7b7 af78 00c0 03ec 2bac ef2e c53f
000005a0: 1499 9849 416f cb3f e9e2 6fa3 4fed 0240
000005b0: 5d6e 749b fa6f 0340 cf3d 2169 ed86 df3f
000005c0: 42a0 d2da 45d8 e73f 551c 7ff0 8043 f1bf
000005d0: 7583 0229 b4e3 e8bf 08d5 a459 5beb 04c0
000005e0: 9ccb 8870 f317 03c0 8eb1 28b9 687c c5bf
000005f0: e595 76c5 b987 c1bf aced 6881 71bc ff3f
00000600: bd04 3269 ea04 0040 a4f5 7e71 5676 733f
00000610: 80cb dc7a b71d c73f 3368 713e 3fd5 fbbf
00000620: f6b9 50a2 29e7 f8bf 5d23 0896 d8e6 e43f
00000630: 0720 9f82 ee99 e63f 7ed0 1194 ae0c 0740
00000640: 3e13 b05c ad92 18c0 971d a063 ffc1 11c0
00000650: e9c8 9862 b63c 14c0 2fbe 9209 9b1e 0ec0
00000660: 7f23 f8e6 8e06 13c0 969d 762f de70 0ec0
00000670: 67ec 0742 0384 14c0 4556 790c e00b 12c0
00000680: 70a6 ca92 8e13 00c0 1275 f828 655f fcbf
00000690: 3424 a0ce ed9e de3f c69f c737 0818 e23f
000006a0: dc9c 9514 9d23 0640 8786 b634 032a 0740
000006b0: f7b0 d02c 1ea1 f03f 0ecf 6cd3 2e3e f63f
000006c0: af1f 9cfa f714 d4bf 0169 1482 baf4 c03f
000006d0: 9140 9c46 177a f8bf 3b10 2a83 7373 f1bf
000006e0: b3ec ba10 2975 06c0 c2be 43f7 6fc4 03c0
000006f0: 2ae7 2e02 9473 c3bf 80ad 05ef ada7 98bf
00000700: f3f9 9a9e 4d8d 0140 c404 bc99 fc84 0240
00000710: 30b6 eedb 9977 1240 639e f40f 65a9 1340
00000720: 0af6 4f08 a675 0a40 cb6f 8a47 29d7 0f40
00000730: c74b a9f6 bd86 0540 d4ab e7a3 4030 0d40
00000740: 8e0f dacb 4ef3 0440 d51b 29a7 9e97 0e40
00000750: 501f 4bdc 524f 0840 1fa1 4233 c0fa 1140
00000760: a94e 36cd 96d2 0f40 aa3d f5f9 00e8 1640
00000770: 1331 66b5 532a 1640 1a1e 4925 45fa 0b40
00000780: 6ad6 ae12 6e0b 0e40 4d25 5153 f87a 0040
00000790: 7dd1 7a0a 7ad3 0440 0dd1 3c99 f820 f23f
000007a0: 9f4d b087 a1be fd3f d1cb 9411 6516 e13f
000007b0: 351f 6b93 8108 f63f 31c4 7ed8 e193 c23f
000007c0: cdaf 6caf d601 f13f 6631 8947 2c15 bcbf
000007d0: aba4 f3d3 bb5e eb3f 169f a3df 78ee d1bf
000007e0: 26eb 1118 b0d8 e63f fedb 9e69 2c8b d9bf
000007f0: 0f11 e93d 1295 e33f dbdb 3159 4249 dfbf
