data/theta_traces_LW_74.npy (npy, 176128 bytes, 1 tensors)

array f8 [10, 2200]
000000 61 c1 72 d3 87 4a 5f bf 67 ca 05 d3 21 e9 16 40
       -0.0019098593163953891 5.727668091991837
000010 fd 65 44 27 1c ea 26 40 64 f3 82 b2 d3 2f 31 40
       11.457246043300069 17.186823994608304
000020 c8 b3 63 51 99 ea 36 40 2d 74 44 f0 5e a5 3c 40
       22.916401945916533 28.645979897224766
000030 ff ff ff ff ff ff 3d 40 a3 e0 3e 9a 93 ff 3d 40
       29.999999999999996 29.99834598574729
000040 27 40 f6 cb ba fe 3d 40 0d 5b 99 8f 75 fd 3d 40
       29.9950377918432 29.990075087490414
000050 27 0c d5 dc c3 fb 3d 40 d8 cc 8f a8 a5 f9 3d 40
       29.983457376493018 29.97518399725672
000060 84 b5 e9 e4 1a f7 3d 40 8a 7e 3c 81 23 f4 3d 40
       29.96525412278926 29.95366676070129
000070 ce 81 1b 6a bf f0 3d 40 3e bd 53 89 ee ec 3d 40
       29.940420753207768 29.925514777130267
000080 81 d6 eb c5 b0 e8 3d 40 39 20 24 04 06 e4 3d 40
       29.908947343900312 29.890716799564164
000090 35 a1 76 25 ee de 3d 40 05 1e 97 08 69 d9 3d 40
       29.870821324789365 29.84925893487345
0000a0 68 25 73 89 76 d3 3d 40 16 20 32 81 16 cd 3d 40
       29.826027479755254 29.801124644029265
0000b0 84 64 35 c6 48 c6 3d 40 34 4f 18 2c 0d bf 3d 40
       29.774547946963608 29.746294742522153
0000c0 42 60 b0 83 63 b7 3d 40 e2 5e 0d 9b 4b af 3d 40
       29.716362219391392 29.68474740101272
0000d0 92 83 79 3d c5 a6 3d 40 db a9 79 33 d0 9d 3d 40
       29.651447145620814 29.616458146288874
0000e0 5f 8a cd 42 6c 94 3d 40 54 fe 6f 2e 99 8a 3d 40
       29.579776930981435 29.541399862615734
0000f0 23 4d 97 b6 56 80 3d 40 76 85 b5 98 a4 75 3d 40
       29.501323139132307 29.459542793575984
000100 7f e2 78 8f 82 6a 3d 40 e9 3e cc 52 f0 5e 3d 40
       29.416054694188002 29.37085454451054
000110 69 96 d7 97 ed 52 3d 40 3c 97 00 11 7a 46 3d 40
       29.32393788350456 29.275300085682133
000120 08 45 eb 6d 95 39 3d 40 40 ae 7a 5b 3f 2c 3d 40
       29.224936361254578 29.17284175629743
000130 b3 b5 d1 83 77 1e 3d 40 ae f1 53 8e 3d 10 3d 40
       29.119011152933762 29.06343926953712
000140 3f a2 a6 1f 91 01 3d 40 3e c0 b1 d9 71 f2 3c 40
       29.0061206609555 28.947049718757846
000150 dc 26 a1 5b df e2 3c 40 7a d9 e5 41 d9 d2 3c 40
       28.886220671504688 28.823627585044484
000160 81 67 37 26 5f c2 3c 40 69 70 95 9f 70 b1 3c 40
       28.75926436283726 28.69312474630752
000170 a2 49 49 42 0d a0 3c 40 ae c8 e7 9f 34 8e 3c 40
       28.625202315227973 28.555490488136165
000180 71 33 53 47 e6 7b 3c 40 fb 58 bd c4 21 69 3c 40
       28.483982522785883 28.410671516635357
000190 25 d5 a9 a1 e6 55 3c 40 59 81 f0 64 34 42 3c 40
       28.335550407374416 28.258611973492723
0001a0 0e 15 c0 92 0a 2e 3c 40 85 f8 a0 ac 68 19 3c 40
       28.179848834891395 28.09925345354033
0001b0 6a 4c 78 31 4e 04 3c 40 2a 29 8b 9d ba ee 3b 40
       28.016818134183644 27.932535025095753
0001c0 d1 18 82 6a ad d8 3b 40 56 ce 6c 0f 26 c2 3b 40
       27.846396118890713 27.758393253387418
0001d0 6f 1d c6 00 24 ab 3b 40 0e 36 78 b0 a6 93 3b 40
       27.668518112533487 27.576762227390695
0001e0 be 26 e1 8d ad 7b 3b 40 41 a9 d7 05 38 63 3b 40
       27.483116977184856 27.387573590423248
0001f0 da 3c b0 82 45 4a 3b 40 d2 91 42 6c d5 30 3b 40
       27.29012314608267 27.190756574871394
000200 ef 49 ef 27 e7 16 3b 40 8b 11 a6 18 7a fc 3a 40
       27.08946466056835 26.98623804144294
000210 3e 15 ec 9e 8d e1 3a 40 1b d8 e2 18 21 c6 3a 40
       26.88106721175904 26.77394252336681
000220 89 6e 4f e2 33 aa 3a 40 0a 22 a2 54 c5 8d 3a 40
       26.66485418738606 26.553792275984996
000230 2b 82 fe c6 d4 70 3a 40 31 e7 43 8e 61 53 3a 40
       26.440746724258286 26.32570733220854
000240 f0 6a 16 fd 6a 35 3a 40 9e 5c e8 63 f0 16 3a 40
       26.208663766835286 26.089605564335777
000250 59 34 04 11 f1 f7 39 40 5a 0b 97 50 6c d8 39 40
       25.968522132421956 25.845402752758083
000260 da 9d bb 6c 61 b8 39 40 cc db 85 ad cf 97 39 40
       25.720236583523594 25.593012662105863
000270 c8 0d 0f 59 b6 76 39 40 6e 93 82 b3 14 55 39 40
       25.463719907927754 25.332347125414735
000280 dd 40 2b ff e9 32 39 40 d2 60 81 7c 35 10 39 40
       25.19888300710669 25.063316136919475
000290 29 61 39 6a f6 ec 38 40 a0 2f 53 05 2c c9 38 40
       24.925634993561435 24.785827954110232
0002a0 ca 4c 2a 89 d5 a4 38 40 47 9b 86 2f f2 7f 38 40
       24.643883297755373 24.49978920971196
0002b0 63 f1 ad 30 81 5a 38 40 5b 73 76 c3 81 34 38 40
       24.353533785311253 24.205105034273725
0002c0 b7 bc 59 1d f3 0d 38 40 08 df 88 72 d4 e6 37 40
       24.05449088517045 23.901679190078568
0002d0 a7 3c 01 f6 24 bf 37 40 0e 46 a2 d9 e3 96 37 40
       23.74665772943686 23.589414217107382
0002e0 5f 20 44 4e 10 6e 37 40 ee 3b cf 83 a9 44 37 40
       23.429936305649218 23.268211591810477
0002f0 8e e1 54 a9 ae 1a 37 40 60 bd 28 ed 1e f0 36 40
       23.104227622244757 22.937971899458148
000300 2c 6e fb 7c f9 c4 36 40 fc 1f f6 85 3d 99 36 40
       22.769431887993207 22.598595020855996
000310 f6 38 d7 34 ea 6c 36 40 60 1f 10 b6 fe 3f 36 40
       22.425448706192547 22.24998033422105
000320 a0 1f e4 35 7a 12 36 40 2f 79 88 e0 5b e4 35 40
       22.072177284425948 21.8920269330203
000330 32 99 45 e2 a2 b5 35 40 a2 89 99 67 4e 86 35 40
       21.70951666068249 21.52463386057355
000340 9a 9b 5b 9d 5d 56 35 40 6d 53 e1 b0 cf 25 35 40
       21.33736594664115 21.147700362216188
000350 01 9d 24 d0 a3 f4 34 40 d2 4e eb 29 d9 c2 34 40
       20.955624588907998 20.761126155803886
000360 c5 01 f0 ed 6e 90 34 40 d5 43 0c 4d 64 5d 34 40
       20.56419264897865 20.36481172131956
000370 65 2b 64 79 b8 29 34 40 ee 50 93 a6 6a f5 33 40
       20.16297110267205 19.958658610311367
000380 28 34 db 09 7a c0 33 40 f1 11 53 da e5 8a 33 40
       19.751862159744775 19.542569775849135
000390 87 2f 19 51 ad 54 33 40 9e 9f 85 a9 cf 1d 33 40
       19.33076960434803 19.11644992363255
0003a0 2d 85 5e 21 4c e6 32 40 b1 d7 0d f9 21 ae 32 40
       18.89959915692923 18.68020588481858
0003b0 f6 ab d8 73 50 75 32 40 1c 04 18 d8 d6 3b 32 40
       18.458258858106966 18.23374701105432
0003c0 fb 28 73 6f b4 01 32 40 87 8e 1b 87 e8 c6 31 40
       18.006659474959616 17.7769855921056
0003d0 15 44 0a 70 72 8b 31 40 fc f0 3e 7f 51 4f 31 40
       17.544714930063567 17.309837296358623
0003e0 22 5d 00 0e 85 12 31 40 67 84 1e 7a 0c d5 30 40
       17.072342753495043 16.83222163434075
0003f0 15 33 36 26 e7 96 30 40 ad 28 f6 79 14 58 30 40
       16.589464557869253 16.3440624452566
000400 7c bd 65 e2 93 18 30 40 0c 0d 5a a4 c9 b0 2f 40
       16.096006536330137 15.845288406364965
000410 c5 e4 bc 83 0d 2f 2f 40 11 b1 83 60 f2 ab 2e 40
       15.591899983223252 15.33583356483044
000420 37 e7 41 45 77 27 2e 40 12 7c 2a 4a 9b a1 2d 40
       15.077081836981604 14.815637891470065
000430 8b 4e ae 95 5d 1a 2d 40 28 2d 1d 5d bd 91 2c 40
       14.551495244529425 14.284647855578967
000440 5d 5e 49 e5 b9 07 2c 40 6f 90 2d 83 52 7c 2b 40
       14.015090146261338 13.742817019760166
000450 14 13 95 9c 86 ef 2a 40 49 3a c6 a8 55 61 2a 40
       13.467823880384039 13.190106653402056
000460 db c6 2e 31 bf d1 29 40 23 2e 12 d2 c2 40 29 40
       12.9096618051148 12.62648636314322
000470 84 97 39 3b 60 ae 28 40 12 63 a5 30 97 1a 28 40
       12.340577936916596 12.051934738339273
000480 80 09 40 8b 67 85 27 40 5d 22 92 39 d1 ee 26 40
       11.760555602614431 11.466440009201671
000490 35 5a 77 40 d4 56 26 40 fc 1e d4 bb 70 bd 25 40
       11.169588102883703 10.870000714915925
0004a0 81 c5 4b df a6 22 25 40 9c e7 f6 f6 76 86 24 40
       10.567679384231043 10.262626378669488
0004b0 09 b7 19 68 e1 e8 23 40 8f fd d9 b1 e6 49 23 40
       9.954844716204677 9.64433818613068
0004c0 c7 7f f4 6d 87 a9 22 40 3d 74 71 51 c4 07 22 40
       9.331111370178304 9.015169663524029
0004d0 54 bd 57 2d 9e 64 21 40 19 91 5e ef 15 c0 20 40
       8.696519295654674 8.37516735104923
0004e0 e7 36 9d a2 2c 1a 20 40 ea fe 70 e0 c6 e5 1e 40
       8.051121789637774 7.72439146699592
0004f0 03 32 1b 40 77 94 1d 40 9b bc b3 32 6d 40 1c 40
       7.394986154231904 7.062916557522068
000500 2e 78 be c6 ab e9 1a 40 fa 8c 09 4c 36 90 19 40
       6.7281943372491195 6.390832126696518
000510 af 29 e6 54 10 34 18 40 13 f1 57 b7 3d d5 16 40
       6.05084355025103 5.708243241064582
000520 27 42 3a 8e c2 73 15 40 f8 7b 5a 3a a3 0f 14 40
       5.363046858125506 5.015271102688523
000530 07 5b 86 63 e4 a8 12 40 84 8b 8d f9 8a 3f 11 40
       4.6649337340120445 4.312053584350796
000540 80 13 6b 6a 38 a7 0f 40 07 d2 3d 32 3b ca 0c 40
       3.9566505731513075 3.598745720397577
000550 cb 2f 36 e5 29 e8 09 40 b6 73 e3 b4 10 01 07 40
       3.2383611590539423 2.8755201465523568
000560 80 5c 29 6b fc 14 04 40 6f bd 83 6b fa 23 01 40
       2.5102470752713657 2.142567481954465
000570 f7 c5 47 68 31 5c fc 3f 88 fd cb bd cb 66 f6 3f
       1.772508056016134 1.4000966466845473
000580 50 c6 39 44 e2 67 f0 3f 8d 82 c9 44 29 bf e4 3f
       1.02536226893098 0.6483351081370344
000590 57 1f d5 e8 0e 38 d1 3f 0e cb df 6c e5 ca bc bf
       0.2690465234522796 -0.11247095020352679
0005a0 a4 9c 5a dd 78 c1 df bf f3 6e 10 a5 ce 39 ec bf
       -0.49618360153767527 -0.8820565437231082
0005b0 1a 7a 97 d8 23 52 f4 bf 97 44 d2 bf ec 8f fa bf
       -1.2700537167180586 -1.66013789110392
0005c0 1d f2 08 e3 0c 6b 00 c0 53 34 4d b9 40 92 03 c0
       -2.052270673475745 -2.446412513416854
0005d0 a4 5e 34 8c 7c bd 06 c0 d4 a3 78 6c aa ec 09 c0
       -2.842522712085911 -3.2405594324413673
0005e0 41 41 a8 d3 b3 1f 0d c0 f2 b2 fb d2 40 2b 10 c0
       -3.6404797111246414 -4.042239472019661
0005f0 fe 14 26 1a 7e c8 11 c0 ac 75 42 9f 85 67 13 c0
       -4.445793541502324 -4.851095665389419
000600 0c 9e fc fa 4a 08 15 c0 e4 b4 1a 80 c1 aa 16 c0
       -5.258098527592221 -5.666753770475427
000610 00 3e f8 3c dc 4e 18 c0 bb 2f 1e fd 8d f4 19 c0
       -6.077012016917706 -6.488822894065318
000620 20 e4 f7 4a c9 9b 1b c0 05 96 a4 71 80 44 1d c0
       -6.902135058765481 -7.316896224661382
000630 b4 04 e5 7e a5 ee 1e c0 4e 61 92 22 15 4d 20 c0
       -7.733053190925762 -8.150551872605003
000640 29 4f cf 2e 80 23 21 c0 87 bf 4d 95 8c fa 21 c0
       -8.5693373325408 -8.989353814831487
000650 ed 7b e5 ec 32 d2 22 c0 fd 5f 5a b3 6b aa 23 c0
       -9.41054477979011 -9.83285294035158
000660 eb 14 a1 4e 2f 83 24 c0 49 4e 2f 0e 76 5c 25 c0
       -10.256220299876494 -10.680588191294321
000670 c5 00 57 2c 38 36 26 c0 7c 01 ac cf 6d 10 27 c0
       -11.105897317524418 -11.53208779310875
000680 57 73 73 0c 0f eb 27 c0 26 5f 1c e6 13 c6 28 c0
       -11.95909918698605 -12.38687056633314
000690 fb ca c0 50 74 a1 29 c0 35 9d ae 32 28 7d 2a c0
       -12.815340541395463 -13.244447311225125
0006a0 ea 90 f7 65 27 59 2b c0 65 7a 07 ba 69 35 2c c0
       -13.674128710241764 -14.104322255528311
0006b0 e1 14 40 f5 e6 11 2d c0 5b 8d 99 d6 96 ee 2d c0
       -14.534965194771248 -14.965994554752504
0006c0 b8 f9 46 17 71 cb 2e c0 09 e8 5d 6c 6d a8 2f c0
       -15.397347190298078 -15.828959833586866
0006d0 54 17 40 c4 c1 42 30 c0 da 91 c3 8e 55 b1 30 c0
       -16.260769143721816 -16.692711756464497
0006e0 9d b0 17 ef ed 1f 31 c0 76 1d e2 bf 86 8e 31 c0
       -17.124724334033647 -17.556743614868047
0006f0 13 05 e5 dd 1b fd 31 c0 5f 3b d3 28 a9 6b 32 c0
       -17.988706463254015 -18.420549918718617
000700 4e f2 22 84 2a da 32 c0 5f 98 de d7 9b 48 33 c0
       -18.852211245090352 -19.283627979130298
000710 23 76 73 11 f9 b6 33 c0 fd a3 7d 24 3e 25 34 c0
       -19.714737978638492 -20.145479469942064
000720 e3 f3 90 0b 67 93 34 c0 d4 6d fe c8 6f 01 35 c0
       -20.575791094673956 -21.005611955753764
000730 d8 00 96 67 54 6f 35 c0 cb 0d 64 fb 10 dd 35 c0
       -21.434881662485026 -21.863540374686448
000740 3b 75 6a a2 a1 4a 36 c0 75 d5 54 85 02 b8 36 c0
       -22.291528845778185 -22.718788464747792
000750 63 aa 27 d8 2f 25 37 c0 56 05 ea da 25 92 37 c0
       -23.14526129692457 -23.570890123495097
000760 9d 97 49 da e0 fe 37 c0 be cf 38 30 5d 6b 38 c0
       -23.99561847969709 -24.419390691633218
000770 4b ce 86 44 97 d7 38 c0 6d fc 70 8d 8b 43 39 c0
       -24.84215191165121 -25.263848152241213
000780 9a 13 2e 90 36 af 39 c0 72 6b 72 e1 94 1a 3a c0
       -25.68442631840626 -26.10383423846674
000790 ed 67 ed 25 a3 85 3a c0 a2 e7 bf 12 5e f0 3a c0
       -26.522020693264427 -26.938935443736803
0007a0 79 97 eb 6d c2 5a 3b c0 42 16 bb 0e cd c4 3b c0
       -27.35452925683737 -27.768753929782413
0007b0 42 d8 22 de 7a 2e 3c c0 ff bf 1a d7 c8 97 3c c0
       -28.181562312609692 -28.592908329039343
0007c0 a8 66 f0 06 b4 00 3d c0 b9 13 92 8d 39 69 3d c0
       -29.00274699563184 -29.411034439242687
0007d0 46 68 d2 9d 56 d1 3d c0 06 c7 a4 7d 08 39 3e c0
       -29.817727912777876 -30.222785809258333
0007e0 c8 97 ed 80 e1 9f 3e c0 b4 09 89 be e1 05 3f c0
       -30.6245346622525 -31.022975834328193
0007f0 8d 39 6b 62 09 6b 3f c0 69 36 e7 ac 58 cf 3f c0
       -31.41811194532197 -31.809946829269766
